Albania_LSTM_Deaths.tflite (tflite, 230524 bytes, 10 tensors)

model_1/Predict/MatMul f4 [1, 50]
00000000: 0495 033e 47b2 9a3d 07d1 5f3e a674 82be
00000010: 7402 79be eeda 29be 70fa 47be aba3 4cbc
00000020: 47ef 23be f6ec 21be 935f 183e 2891 2f3d
00000030: 60fc 203e b43d 7abe e18c 7bbe ac0f 533d
00000040: 1663 c23d 6238 253e 6d40 7dbe b186 8a3e
00000050: 63fd 75bd d983 c8be dc1b 7abe d0a8 58be
00000060: 9a6a 803e 4feb 4b3e 4068 9fbc b2e7 763e
00000070: bbac 84be 2e44 a63b 7ed7 af3d bf22 a43d
00000080: 69b6 7ebe 6704 cfbd c3c5 9f3e 56f9 c6bd
00000090: af48 82be 5383 0b3e ad3a ccbe 2731 6e3e
000000a0: 2fcd 593d 5c75 2ebe 5a40 5abe 6436 413e
000000b0: 5384 133e 5b94 613e 9a40 47bd 47cf 28be
000000c0: 4565 243e 0603 413e
0.12849814 0.07553535 0.21857081 -0.2547962 -0.24317342 -0.16587421 -0.19529128 -0.012490193
-0.16009246 -0.1581305 0.14880209 0.04286304 0.15721273 -0.244376 -0.2456546 0.051528618
0.094915554 0.1613479 -0.24731608 0.27055886 -0.0600561 -0.39163092 -0.2442469 -0.21158147
0.2508133 0.19913982 -0.01945889 0.24111822 -0.25913033 0.0050740456 0.08586024 0.0801444
-0.24874271 -0.101082616 0.31205568 -0.09715526 -0.25446078 0.13624315 -0.39888516 0.23260938
0.053174194 -0.17036957 -0.2131361 0.18868405 0.14405946 0.2202925 -0.048645593 -0.1648532
0.16054256 0.1884881

model_1/LSTML1/while/lstm_cell/BiasAdd/ReadVariableOp f4 [200]
00000000: 0ec8 5fbd 2503 92bd 11a2 d8bd b78f 81bd
00000010: 6dc5 ffbc 4527 d3bc 4287 093c a447 0a3d
00000020: bcd1 afbc 7209 113e 7377 b0ba 80f1 f93b
00000030: dc93 a9bd 9074 573d a272 e8bc 580e 373c
00000040: 0b31 b13c 2c3c 963c 6a47 bebd 2f80 813c
00000050: 15b7 c73c bc30 b23a 301a e93a eca3 3ebd
00000060: 404f d93d 869d 6abd 4340 96bd e0c0 113c
00000070: de71 7fbc 74b5 c0bc 5c36 183e 70d0 3abd
00000080: 5777 36be 21e6 acbd 01c9 89ba e035 0a3b
00000090: 198c d4bb 7d75 d23c 17df 45bd b83c 9abb
000000a0: dde7 183c 8efe 1b3d 807e e7bd 47d7 41bd
000000b0: b9db cbbc 2ada aebb 022e 51bd 7d2c 223d
000000c0: 7520 43bd c3c4 c6bd 0c2b 3c3f cf48 453f
000000d0: eb01 3f3f 3808 323f 55e0 163f 1b8c 393f
000000e0: 49ff 413f cb99 573f 004a 1c3f fe63 5b3f
000000f0: 179b 543f 6a83 463f 4338 0e3f 3b57 153f
00000100: 49c6 423f 3eea 443f 444e 343f 7a52 443f
00000110: 16ce 223f dcd3 463f 910d 4e3f 3526 293f
00000120: ac9c 5a3f 3b72 273f 134f 673f 87bf 423f
00000130: 7c37 483f af9f 443f 0bb0 533f 9271 403f
00000140: 4c6f 863f d0fe 4b3f 1ea9 073f f3b9 343f
00000150: 3df6 573f a38c 1c3f 9fd2 583f 3549 553f
00000160: 2861 373f 1141 343f 9582 3c3f 0573 4b3f
00000170: 9d20 1d3f aeb1 4a3f 05a1 3e3f d4ed 3b3f
00000180: 53e6 483f 64a2 4d3f dd40 333f 7003 383f
00000190: 8a41 1cbe 6abd 4fbe f00f 14be 51be 123e
000001a0: e229 0fbe f084 0f3e e891 303e 07d4 373e
000001b0: 4d3a 173e e3ab 3f3e 9d5e 2b3e 9be2 313e
000001c0: 7ff5 07be 49ab 533e e3ad 243e 0e50 373e
000001d0: e98b 203e 447c 293e 28a8 fd3d 3e38 2c3e
000001e0: c1ca f5bd fb3c fb3d 25ef 58be 236d 2e3e
000001f0: 3c57 393d 58eb 2ebe 85c2 7fbe c7d5 303e
00000200: 439f ea3d 6702 203e 0be8 0cbd 8150 76be
00000210: 4b01 2dbe ba75 0f3e 705c 57be aeda 4b3e
00000220: 2070 04bd 00a7 d23d 2e31 063e 85b2 353e
00000230: f7a1 283e 16ad 2d3e a60b fe3d f5e6 4bbe
00000240: ca47 46be 7477 273e 03bd 54be 3e9f 333e
00000250: 8ccd 233e 81ff d73d cf44 f3bd d3e6 17be
00000260: 6ef0 07be e79d d6bd 3a1c 9dbd ac40 7ebd
00000270: 5628 0bbd 9501 ed3a 618c c2bd e9f7 0c3e
00000280: e694 b0bc 87ee e4bb 8d53 14be ad9b 8cbc
00000290: 81bb 90bd 0a71 34bd 9264 3ebd bad8 a0bc
000002a0: d9d6 a7bd 2b2b 22bd 3f59 b43c 2af5 fdbc
000002b0: d0a5 79bd 87c5 13be 354a 463d 53f8 e6bd
000002c0: fd4a 00be fcea c4bc 2c7a ddbd 97ca 60bd
000002d0: 3e83 0d3e b7e4 0abe e4e5 8fbe b112 f6bd
000002e0: 494e 7fbd 03f5 5abd 610e 09bd 2069 0b3c
000002f0: 6263 b5bd 1312 76bd 9b42 61bd 231d 1cbc
00000300: 44e7 1bbe 788f 8dbd 48b7 babd b386 46bd
00000310: 20fd 94bd b5f4 d63c 6446 c3bd ee19 13be
-0.054634146 -0.07129506 -0.10577787 -0.063262396 -0.03122207 -0.025775561 0.008394064 0.033759728
-0.021462314 0.1416376 -0.0013463333 0.007627666 -0.08280155 0.052601397 -0.028374974 0.011172853
0.02162983 0.018339239 -0.09290965 0.015808193 0.024379293 0.0013594846 0.0017784294 -0.046543047
0.10610819 -0.057279132 -0.07336476 0.008896083 -0.015591113 -0.023524024 0.14864486 -0.045608938
-0.17818962 -0.08442331 -0.0010512174 0.002108924 -0.0064864275 0.025690788 -0.04830846 -0.0047069453
0.009332624 0.03808456 -0.11303425 -0.047324445 -0.024885045 -0.005336066 -0.051069267 0.03959321
-0.047638375 -0.09705498 0.73503184 0.7706422 0.746123 0.6954379 0.58936054 0.7247941
0.7578016 0.84219044 0.61050415 0.8569945 0.8304915 0.7754427 0.555546 0.5833623
0.7608381 0.76919925 0.70431924 0.7668835 0.6359571 0.7766702 0.8048945 0.66073924
0.8539531 0.65408677 0.9035503 0.760735 0.7820966 0.7680616 0.82690495 0.75173295
1.0502715 0.7968569 0.5299243 0.70596236 0.84360105 0.61152095 0.8469638 0.8331483
0.71632624 0.70411783 0.7363675 0.7947238 0.6137789 0.7917737 0.74464446 0.7340977
0.78476447 0.80325913 0.7002085 0.71880245 -0.15259376 -0.202871 -0.14459205 0.14330412
-0.13980821 0.14015555 0.17243159 0.17951976 0.14768334 0.18717913 0.16735311 0.173716
-0.13277243 0.20670809 0.16081958 0.17901632 0.15678371 0.1655131 0.12385589 0.1681833
-0.12001563 0.122674905 -0.21184976 0.1703382 0.04524921 -0.17081964 -0.24976547 0.1726905
0.11456158 0.15625916 -0.03440098 -0.24054147 -0.16895024 0.14009753 -0.21031356 0.19907638
-0.032333493 0.10285759 0.13104698 0.17743881 0.16468035 0.16960558 0.124045655 -0.19912322
-0.19363323 0.16354162 -0.20775227 0.17541215 0.15996379 0.105467804 -0.118783586 -0.14834146
-0.1327531 -0.10479336 -0.076713994 -0.062073395 -0.033974014 0.0018082137 -0.094994314 0.13766445
-0.021555375 -0.0069864425 -0.14484997 -0.017164076 -0.070670135 -0.044053115 -0.04648263 -0.019634593
-0.08195276 -0.03959195 0.022015212 -0.031000692 -0.060949147 -0.1443082 0.048410613 -0.11277833
-0.12528606 -0.02403783 -0.10814318 -0.054880705 0.13819596 -0.1356381 -0.2810508 -0.12015284
-0.062330518 -0.053456318 -0.03346098 0.0085089505 -0.088568464 -0.06007583 -0.05499516 -0.009528431
-0.1522494 -0.0691213 -0.091169894 -0.048468303 -0.07274842 0.026239732 -0.0953491 -0.1436536

model_1/LSTML1/while/lstm_cell/MatMul_11 f4 [200, 50]
00000000: a5b4 923e 03a3 0b3f f807 a83e fb39 8bbe
00000010: 94d0 153e a9c3 a6be ed75 c3be 54de afbe
00000020: e0d8 88be 1fbf ccbe 4cd5 9cbe 5381 c8be
00000030: a7c1 283e f40e 89be 76c6 b9be 6b26 eabe
00000040: 9a96 83be 15fd e0be 0e00 a7bd f4ac a2be
00000050: 8e11 30bd 9fb0 27be 9fb0 b43e 4b87 3cbe
00000060: 77bf f23d a248 103e 834b a23e d298 86be
00000070: 29bd 573e 962b 9bbe a3ce 0ebe 7997 bb3e
00000080: deae ae3e 73ed 33be 734a 043f b59d 8dbe
00000090: 3067 99be e800 d73d b93a 20be dc7e 60be
000000a0: 79ef c7be 46c8 a5be 5ccf 1dbe 93d8 a23e
000000b0: 673d d93e 4d64 89be a8d9 d33e 86be 8bbe
000000c0: bbf0 c8be fa44 8d3d f995 943e 9e66 b23e
000000d0: d93c c33e 187d 2ebe 41c6 a93e 4daf babe
000000e0: e165 fcbe a9fc 04bf 992e bbbe d151 ecbe
000000f0: 1bfd bebe 1cd1 e7be 1721 833e 3181 bdbe
00000100: b21c 6cbe 08a7 d2be 71c3 75be 2128 7bbe
00000110: 9baa 74be 49a6 b7be 329e ba3d 557c 27be
00000120: 8c85 c83e d0eb 89be 21d1 f13d 68fb ca3e
00000130: 1e16 ea3e 3124 00bf 76f6 fe3d 5784 fdbe
00000140: 58d1 e73c f9a4 dd3e a95b bb3e 2e18 81be
00000150: 02f8 003f 3c09 b2be 5253 5abe 6004 423d
00000160: 0841 31be a722 7bbe ea96 a9be ef16 f9be
00000170: d96b a8be 9180 173f 45d9 f03e 8b26 97be
00000180: 1f1b 5a3e 5b67 ddbe 4471 a5be 214d e63d
00000190: b9df c83e 719e d23e 7aaa 963e af7b a1be
000001a0: 62e5 b03d b30f d8be 5344 80be 6d92 f5be
000001b0: d006 14be e26d d9be e7b8 bcbe a967 a3be
000001c0: 7742 c53d c84f 80be 3e04 1fbe ce6c c5be
000001d0: 50ab abbe ee74 a6be 1aa4 77be e411 a7be
000001e0: c6b7 a4bd 1951 73be b022 b43e c0f8 07be
000001f0: 5892 713e 910a 793e f0cc df3e 99a9 94be
00000200: 186b a13d 909e 5ebe f531 e8bd f7fc 883e
00000210: cb6e 8d3e d73f 2cbe 0385 c23e d617 4fbe
00000220: a3b4 82be c78a 353d db46 6dbd 22b3 74be
00000230: 0c47 dbbe d3e5 b8be d034 26be d0a7 9c3e
00000240: c1a2 f53e 6d18 8dbe e82a e43e b616 abbe
00000250: 8674 c7be 4cd6 073e 1f50 873e 3bfa b43e
00000260: bf57 873e 8f24 16be 09de 7ebd 1c06 dbbd
00000270: a6e0 77bd 9bd3 87be a0a0 7dbd da0f fabd
00000280: af9b 64be ab45 59bc 2fde 73bc 32fd 4b3c
00000290: 9ea8 2fbe 58ce 08be c16f e5bd 34a9 56be
000002a0: aebc e63d e566 28be 928a bbbd 746e 3c3e
000002b0: beed 613e 5c8d 9e3d 6019 a23e 854a 9e3e
000002c0: 1b3b 083f 05f9 a9be 631e 0b3f 8b04 eebd
000002d0: fd25 bebe 8ac7 c03e da9c 123e 4bee 343e
000002e0: a817 7f3e 5fdb 32be b11f d2be e293 883e
000002f0: 1c27 5b3e c29a 1e3e 4018 a5bd 4c42 dcbe
00000300: c4e1 273d 3b50 883e 0949 953e fb8f 4bbe
00000310: 1670 a93e fbdb 80be 3d27 80be 85c7 e73e
00000320: 37f0 d9be d057 efbe bd62 ebbe 6183 f03e
00000330: c6e5 c0be 6030 013f cff6 cb3e 01f4 143f
00000340: 0cd9 8d3e 9410 253f bcc9 fc3e ed9b e53e
00000350: 0671 f7be 3081 cc3e 99ad ea3e 4f5a c23e
00000360: e330 d43e b67c f43e a2ea 903e f8d6 fc3e
00000370: d080 dabe c4d6 d23e df77 03bf c433 ae3e
00000380: 5bd4 ce3e afd7 04bf 3200 02bf 89d0 c43e
00000390: 9f83 033f c23f f43e 171c b4be 15a0 83be
000003a0: fb27 cdbe 31c7 c63e 5639 c9be c6e9 9b3e
000003b0: b488 d1be 6eaa b03e d9e2 bc3e 2093 a53e
000003c0: 6920 a43e 1288 f93e f3a1 ce3e 3fc9 23bf
000003d0: 6418 03bf 523d af3e 2fd2 10bf 9e0e fb3e
000003e0: 61a4 f33e 282f 1d3f 31f0 853e f2ea f63e
000003f0: 30a5 7b3e 8d93 b4be c0e9 aa3c d43a cdbe
0.28653446 0.5454561 0.3281858 -0.27192673 0.14630347 -0.32571152 -0.38175908 -0.3434931
-0.26727962 -0.39989564 -0.30631483 -0.39161167 0.16480123 -0.2676922 -0.36284226 -0.45732436
-0.25700837 -0.43943086 -0.08154307 -0.31772578 -0.04298549 -0.1637597 0.35291 -0.18410985
0.11852925 0.14090207 0.31698236 -0.26288468 0.21068253 -0.3030669 -0.13946013 0.36639002
0.34117788 -0.17571048 0.516761 -0.27659383 -0.29961538 0.1049822 -0.15647401 -0.21923393
-0.3904989 -0.3237936 -0.15411133 0.31805858 0.4242966 -0.26834336 0.41376996 -0.27293795
-0.39246163 0.06897922 0.2902067 0.34843916 0.3813236 -0.17039907 0.33159068 -0.3646187
-0.49296477 -0.5194803 -0.3655899 -0.4615617 -0.3730248 -0.45276725 0.25611183 -0.37012628
-0.23057821 -0.4114306 -0.24000336 -0.24527027 -0.23893206 -0.35869053 0.091122046 -0.16356023
0.39164388 -0.26937723 0.11807466 0.39644933 0.4572 -0.50055224 0.124493524 -0.4951503
0.028298065 0.43289927 0.3659337 -0.2521376 0.5037843 -0.3477267 -0.21320847 0.047367454
-0.17309964 -0.24524938 -0.3312295 -0.4865031 -0.3289478 0.5918055 0.47040763 -0.29521593
0.21299408 -0.43242916 -0.32312977 0.1124518 0.39233187 0.41136506 0.29426938 -0.31539676
0.08637501 -0.42199478 -0.25052127 -0.47963277 -0.14455724 -0.42466646 -0.3685982 -0.31915024
0.09631818 -0.25060868 -0.15528962 -0.38559574 -0.3352914 -0.32511085 -0.24183694 -0.32630837
-0.080428645 -0.23761405 0.35182714 -0.13278484 0.23590982 0.24320437 0.43711042 -0.29035643
0.07881755 -0.21740174 -0.113376535 0.26755497 0.2762359 -0.16821228 0.37992105 -0.20223936
-0.2552844 0.0443218 -0.0579289 -0.23896459 -0.42827642 -0.36112842 -0.16231084 0.3059678
0.47975734 -0.27557698 0.44563985 -0.33415765 -0.38956088 0.13265342 0.26428315 0.3534716
0.26434132 -0.14662383 -0.062223468 -0.10694525 -0.060516976 -0.2652863 -0.061920762 -0.12210055
-0.22325014 -0.013261239 -0.014884516 0.012450503 -0.17154166 -0.13359964 -0.11202956 -0.20962983
0.112664565 -0.16445501 -0.091572896 0.1840151 0.22063348 0.07741806 0.31659985 0.3091623
0.5321519 -0.331978 0.5434324 -0.1162196 -0.37138358 0.37652236 0.14317647 0.17669027
0.24911368 -0.17466496 -0.41039804 0.26675326 0.21401638 0.15488723 -0.08061266 -0.4301933
0.04098679 0.2662371 0.29157284 -0.19879143 0.33093327 -0.25167832 -0.25029936 0.4526941
-0.42566082 -0.46746683 -0.4597377 0.46975234 -0.37675303 0.5046444 0.39836738 0.5818482
0.27704656 0.6447842 0.4937266 0.44845524 -0.48328418 0.39942312 0.4583557 0.37959525
0.41443548 0.47751397 0.2830401 0.49382758 -0.426764 0.41179478 -0.51354784 0.3402387
0.4039639 -0.5189161 -0.5078155 0.3844035 0.5137271 0.47704893 -0.3517768 -0.2570807
-0.40069565 0.38823846 -0.39301556 0.30451792 -0.4092461 0.34505028 0.3689182 0.3233881
0.32055977 0.48736626 0.40357932 -0.6397895 -0.5120909 0.3422647 -0.56570715 0.4903459
0.4758635 0.6140008 0.26159814 0.48226124 0.24574733 -0.35268822 0.020863414 -0.40083945

model_1/LSTML1/while/lstm_cell/MatMul f4 [200, 1]
00000000: be64 5f3e d5d8 a63e 8d38 c33e 9193 843e
00000010: 8739 b4be 8038 a53e f68b 893e 51f4 cf3e
00000020: 23b9 de3c fd16 fe3e 80aa e33e 3815 b73e
00000030: 58db c6be 75bf 313e 3c80 923e 78e9 9b3c
00000040: 3b61 613d ef6c 803e 5862 08bf 6c1c 1a3e
00000050: 3c71 17bf ed4d e7be 5353 a53e de1a f0be
00000060: 42b0 52be 13b9 b53d 33a9 f03e 19af c03e
00000070: 8533 f0bf b652 953e dff9 0ebf ecf2 b43e
00000080: d6b6 a43d 6cf0 0ebf 466b ac3e d59e 4b3e
00000090: 3cfb 5fbf 5c66 2abf 2bda f7be f459 b1bb
000000a0: 43f3 ae3d 8239 5f3e 5509 f5be e788 cd3e
000000b0: 3a20 6a3e 7041 8a3e cae9 dc3e 88a5 b83e
000000c0: 67c1 a63e 9a24 b2bf 22d0 3e3e 394f 653e
000000d0: 6756 543d f6fc c8bd 0d3e 63bf bfce 413e
000000e0: 95e8 8e3c 38c7 273b 751b b3bd 2997 af3e
000000f0: 8176 efbb 4189 313e a8c1 46bf 652d b4bd
00000100: 82b4 07bd 6b49 54be fbd2 073d 2777 12be
00000110: 24e9 45bf 1483 7d3c e730 11bf b431 73bf
00000120: f9db 203e 12ce 82bf 892a fdbe 8706 7bbd
00000130: 72bc a73e 2779 7e3e f923 4dc0 9a57 473e
00000140: 626f 0bbf a74e a83e a883 99be 62b0 8bbf
00000150: 8a95 0c3e 228e 00bc f894 94bf cb86 48bf
00000160: 6019 66bf 414a 99be 53d5 58be 31b3 483e
00000170: 7dae 6ebf 5a4f 793e e1de a23e ffd4 3abe
00000180: e034 ad3e 6795 733e 5aaf 143e f1bb 46c0
00000190: 9175 803e a725 803e acb5 713e 3a71 71be
000001a0: 02dd e53e 84c3 80be c260 97be cf6b 97be
000001b0: abfa 7ebe be4c 94be 00d1 8cbe 7433 95be
000001c0: ebf8 d53e 80e0 9bbe 7aad 86be 825a 9cbe
000001d0: d603 88be a0e6 93be 5a60 09bf 0ad8 8dbe
000001e0: c85f ff3e 417a 03bf 601a 9d3e 0368 dcbe
000001f0: 0178 62bf e3c4 813e e43e 8a3e 68c4 8fbe
00000200: 2482 8fbf a18e 84be bfbe 1b3f c9f5 933e
00000210: 5599 9c3e b2ef 06bf c987 973e 7aeb 8cbe
00000220: 68de 133f 90a2 3cbf 51ab 08bf 4e25 9bbe
00000230: a8f0 90be fad2 8ebe fc3f fabe c192 943e
00000240: 833a 623e 27de 8abe a428 843e d250 95be
00000250: 2b14 82be ee73 95bf c298 803e d8b1 a63e
00000260: 999a 9f3e f879 ed3d 1766 1abf b22b b83e
00000270: 74cb 693e f59a b23e ee69 b9bd 8e88 c33e
00000280: d140 b93e cb0f 0c3e 8f77 0cbf 5b1d cbbd
00000290: 2195 813e f7bc 743e 253b 1e3e ac55 d13d
000002a0: 0991 05bf 157d 593e 651f e9be 1603 d9be
000002b0: dbed 6f3e 7ec7 45bf ec37 e6be 8d41 57bc
000002c0: 33fa c43e a3ff a83e 1129 15c0 7e12 a03e
000002d0: 4bd9 21bf 186b dc3e fe06 04be 683f 28bf
000002e0: bdad a33e 3a4c 9fbd a6bb 8bbf aaaa 06bf
000002f0: b9a6 20bf 2196 0cbe 36ce 2f3e 6a2b c53e
00000300: 907f d1be ba02 253e b93b 483e 7a82 213d
00000310: 6432 5c3e 9692 213e c60b ad3e 0e32 c4bf
0.21815774 0.32587305 0.38129082 0.25893834 -0.3520014 0.3226967 0.26864594 0.40616086
0.02718789 0.49626914 0.4446602 0.35758376 -0.3883922 0.17358191 0.2861346 0.019032225
0.055024367 0.2508311 -0.5327506 0.15049905 -0.59157157 -0.4517664 0.32290134 -0.46895498
-0.2057505 0.08873191 0.4700409 0.3763359 -1.8765723 0.29164666 -0.55850023 0.35341585
0.08042686 -0.55835605 0.33675593 0.19884808 -0.8749273 -0.6656244 -0.48408636 -0.0054123346
0.08542492 0.21799281 -0.47858682 0.4014351 0.22863856 0.2700305 0.43147117 0.3606379
0.3256943 -1.391742 0.18634084 0.22393502 0.051840212 -0.098138735 -0.88766557 0.18926524
0.017444888 0.0025600921 -0.087454714 0.34295014 -0.007307828 0.17337514 -0.77639246 -0.08797721
-0.03313113 -0.20731132 0.03316019 -0.14303266 -0.7730887 0.015473146 -0.56715244 -0.94997716
0.15708913 -1.0219138 -0.49446514 -0.06128552 0.3276096 0.24850903 -3.2053206 0.19467011
-0.5446683 0.32872507 -0.29983258 -1.0913203 0.1372892 -0.007846387 -1.1607962 -0.7833068
-0.8988247 -0.29939464 -0.21175127 0.19599606 -0.93235 0.24346676 0.31810668 -0.18245314
0.33829403 0.23787461 0.14520016 -3.105221 0.25089696 0.25028726 0.23604459 -0.23578349
0.44895178 -0.25149167 -0.29566008 -0.2957444 -0.2490031 -0.289648 -0.27503204 -0.29140818
0.41791472 -0.30444717 -0.26304227 -0.30537802 -0.26565427 -0.2888689 -0.53662646 -0.27703887
0.49877763 -0.5135842 0.30684185 -0.43048105 -0.8846436 0.25345525 0.27001107 -0.28079534
-1.1211591 -0.25890067 0.6083793 0.28898457 0.30585733 -0.52709496 0.29595783 -0.27523404
0.5776124 -0.7368555 -0.5338641 -0.303019 -0.28308606 -0.27895337 -0.4887694 0.29018214
0.22092633 -0.27122614 0.25812256 -0.29163224 -0.25406012 -1.1676004 0.25116545 0.3255756
0.31172636 0.11595529 -0.60312027 0.35970837 0.22831517 0.34883848 -0.090534076 0.3819012
0.36182263 0.136779 -0.5486993 -0.099177085 0.2530909 0.2390021 0.1545225 0.10221419
-0.5217443 0.21239121 -0.45531765 -0.42385167 0.23430578 -0.77257526 -0.4496454 -0.013138187
0.38472137 0.33007535 -2.3306315 0.31264108 -0.6322219 0.43050456 -0.12893292 -0.6572175
0.3196849 -0.07778211 -1.0916641 -0.5260416 -0.627544 -0.13729145 0.17168507 0.38509685
-0.40917635 0.16114321 0.19554032 0.039431073 0.21503597 0.15778574 0.33798045 -1.5327775

model_1/LSTM2/while/lstm_cell/BiasAdd/ReadVariableOp f4 [200]
00000000: 37ca 9a3d 9092 5dbd 9498 05ba 4263 19be
00000010: a18a a3bd 42f1 1c3d 7e14 bbbc 568b b23d
00000020: d9e5 043e 2b05 de3d 01a3 d4bb 9364 ec3d
00000030: af2d ce3c c2d4 d3bd 8b96 dcbc de93 1c3e
00000040: 5aab 823c 40b3 d0bd ef06 823d b22f 4b3d
00000050: 1462 f53b c1ba 7cbc e886 98bd 14b3 89bd
00000060: 640a 97bc 8ab4 08bd 4caa ab3d 5b3d b7bd
00000070: c6da 5abd e0c8 333d 517c 8dbd 8ad9 25bc
00000080: dc18 2a3c 5b4d 413d 66c5 4ebd 15c9 0dbc
00000090: 7c2b 30bc bc35 483d 54b7 ba3c 27a4 65bd
000000a0: 9d25 c1bd da86 c23d 5bb1 2e3d b7de 34bd
000000b0: 8476 963d a331 f23c c991 473b ec7c d6bd
000000c0: 12df 593d 17f0 eb3c 8b4e 3c3f 47f6 133f
000000d0: 54b7 1a3f 7881 a53e af11 173f c7d4 2f3f
000000e0: e7d0 163f 0a5e 383f 9125 333f 5561 3c3f
000000f0: 7fa3 1a3f ff1e 313f 1beb 0f3f b02d 273f
00000100: 1664 253f 4bfd 2f3f ccc9 363f 0267 063f
00000110: e05d 443f 4129 273f 724f 373f e4b0 493f
00000120: 8dd9 303f 2a26 2d3f 3228 3b3f 380f 2f3f
00000130: b581 2d3f c660 233f ff95 303f 5207 2f3f
00000140: eb7e 0c3f 95f6 343f cb28 313f 3ea4 303f
00000150: 69f7 1c3f d4ea 3a3f b488 1c3f 6bf7 3d3f
00000160: 0622 333f 0249 1e3f d88b 073f a883 303f
00000170: af1f 2e3f 7fd5 183f 98a3 313f 1220 023f
00000180: 4a86 213f 63d2 de3e 9de3 413f 60b4 363f
00000190: 68a6 4ebd fc53 933d c993 58bd 1473 a03d
000001a0: addd 893c f53f 4bbd b662 51bd c10b 6abc
000001b0: 025e 24bd 5627 4ebd 04b3 853d 2a5b a2bd
000001c0: a4ff 9abb 0cdf 8a3d 79bd a43d acc9 75bd
000001d0: d8f3 81bd 6854 bc3d 9e60 69bd 8353 6cbd
000001e0: 31de 97bd f70e 263d 7c18 943d 7e2e a23d
000001f0: aef9 4d3d cb4d 6f3d f5be 29bd 4f35 7fbd
00000200: 4589 863d 7733 30bd e796 443d b83e 573d
00000210: 9418 7aba 0975 38bd 0b18 61bd b67a 6d3d
00000220: 719c 04bd d6be 4cbd a22f 1abd 0bed 893d
00000230: 0a01 2a3d f616 10bd e4db 71bd ea86 6a3d
00000240: e13b 6bbd b053 953d a4aa 25bd 59f1 a43d
00000250: e7ae 6c3d efee 823d 33e6 8c3c 1f51 64bc
00000260: 9d7e 0abd baf1 39be 482f 13bd da90 16bc
00000270: 0879 a1bd e6ea e93d 1e3a 8f3d ea2a 8d3d
00000280: fc53 423d 5828 cf3c ec4b c1bd 3093 debd
00000290: caa4 90bd c023 cb3d 3e85 8bbc 7ede f6bd
000002a0: 5579 91bc 916e 613d d171 18bd 6fb6 6b3c
000002b0: 2fd7 d2bd ad9b d5bd 77c6 fdbc 5843 4dbc
000002c0: d20f 943d 821e 83bd f25e 3fbd 0f02 05bd
000002d0: fb21 243c 1a58 213d 4cd6 2c3d 2cee 0c3c
000002e0: 1e1d a0bd 209a 883c 628c 0ebc 21a0 55bc
000002f0: 8c31 06bd ee18 b0bd 408b 9ebd 5e7b ad3b
00000300: 10b3 88bd 98a7 d3bd 3e29 f03a a1cf 713b
00000310: 64e1 e6bd cb31 f0bd 33a2 543d 26e8 1f3d
0.07558101 -0.05409485 -0.0005096283 -0.1497927 -0.07985426 0.03831602 -0.02283692 0.087179825
0.12978305 0.108408295 -0.006489158 0.115426205 0.025168268 -0.10343315 -0.026927253 0.15290782
0.015950847 -0.10190439 0.06348979 0.049606033 0.0074884985 -0.015425385 -0.07447606 -0.067236096
-0.018437572 -0.0333753 0.08382091 -0.089472495 -0.053431295 0.04389274 -0.06908477 -0.010122666
0.0103819035 0.047192913 -0.050481223 -0.008653899 -0.010752555 0.04887937 0.022792496 -0.05606475
-0.09431002 0.09498377 0.042649608 -0.04415771 0.07346824 0.029564684 0.0030451885 -0.10473046
0.053191252 0.028801007 0.7355735 0.57797664 0.60435987 0.3232534 0.5901136 0.6868405
0.5891251 0.7201849 0.69979197 0.73586017 0.60405725 0.6918792 0.5621812 0.6530409
0.64605844 0.6874587 0.7140167 0.5250093 0.7670574 0.65297323 0.716056 0.7878554
0.69081956 0.6763636 0.7310821 0.68382597 0.6777604 0.6381954 0.68978876 0.68370545
0.5488116 0.70688754 0.6920287 0.69000614 0.6131502 0.7301457 0.6114609 0.74205655
0.6997379 0.6183015 0.5294776 0.6895089 0.68017095 0.5970077 0.6939025 0.50830185
0.63095534 0.43519887 0.75737935 0.7136898 -0.050451666 0.07193753 -0.052875314 0.078344494
0.016829336 -0.04962154 -0.05111953 -0.014285029 -0.040128715 -0.050330482 0.06528285 -0.079275444
-0.004730182 0.06780824 0.080439515 -0.060006782 -0.06345338 0.09195787 -0.056976907 -0.05769683
-0.074154265 0.040541615 0.072312325 0.07919024 0.05028694 0.0584238 -0.041441876 -0.0623067
0.06569151 -0.04301783 0.047995474 0.052550048 -0.00095404056 -0.04503349 -0.05495457 0.057978354
-0.032375757 -0.049986683 -0.037643082 0.067346655 0.041504897 -0.035178147 -0.059047595 0.05725757
-0.05743015 0.07291353 -0.04044594 0.08053846 0.057783987 0.06393229 0.017199611 -0.013935356
-0.033812154 -0.18158618 -0.035933763 -0.009189809 -0.07884413 0.114217564 0.06993507 0.06892951
0.047443375 0.025287792 -0.09438309 -0.108679175 -0.07062681 0.09918928 -0.017031308 -0.12054156
-0.017758051 0.055037085 -0.03721792 0.014386757 -0.10294949 -0.104300834 -0.030978424 -0.012528263
0.0722958 -0.06402303 -0.046721406 -0.032472666 0.010017867 0.03939066 0.042196557 0.0086017065
-0.07818054 0.016675055 -0.008700462 -0.013038666 -0.032762095 -0.08598505 -0.077414036 0.0052942475
-0.066747785 -0.103347 0.0018322838 0.0036897438 -0.112734586 -0.11728247 0.051912498 0.039039753

model_1/LSTM2/while/lstm_cell/MatMul_11 f4 [200, 50]
00000000: 8b25 7dbe 73a3 163d d60a 6abe 5a32 163e
00000010: 1c9e 6fb9 e4e2 babd 9dcc 39be 0a9f d33c
00000020: 534a 56bc 5c63 0bbe 904f b63d 5f2e 2ebe
00000030: 5ea0 37be 626d 4c3d f2f6 c93c c3aa 89be
00000040: e5c9 8ebe d9b3 8a3d 6dcc 96be 0dda aabd
00000050: 62d0 83be f77d 1a3d 7fc5 413e 59cc 943d
00000060: cb3f 123b f7e4 7d3e 18f0 1ebe ebf4 26bd
00000070: 77f7 bc3d fb50 35bd 69c5 053e 465d 3a3d
00000080: 10ec afbc 0f95 57bd 9b6e debd e319 5c3d
00000090: 7546 3fbd 4ec0 79be f352 76be 44a7 053e
000000a0: 8a4d acbc 6f09 14be 506f 81be ee34 c03d
000000b0: bf7b 8dbc f4b5 163e f01a e5bd 760a 88bc
000000c0: c36a d33d a209 463c bf20 693e dc9e 69be
000000d0: d9bb 5a3e c51f 51be 65c6 113d 09df 6e3b
000000e0: 2fb4 b83e 2a8a 98be 5370 893e d708 b03e
000000f0: 5c2e 533d 64d9 143e e0c2 7f3e 11fc 3ebd
00000100: 7dc1 51bd cb25 b83e 3559 853e 2eca 433c
00000110: 9187 a83d 57d0 943d 84fb ee3d 7a22 8937
00000120: 5d97 bd3d fdb7 14bd d105 153d 6df7 bdbd
00000130: 911b 5d3e cc9e 443d 2b96 75bd 2f91 373e
00000140: ce59 c8bc a663 2e3d 6466 81bd 4d2b 293e
00000150: a660 bb3d 7588 d93c 9068 25bd 4804 093e
00000160: eb44 a73d e003 ec3c 0974 603d 2edb 983e
00000170: 4c51 173e 92a5 b2be 36a2 333d 2cf8 23be
00000180: 4a74 913e 55d9 54bd b7c4 673d 94c8 d83c
00000190: 7ef1 483d c518 9fbd 22ea 343d a082 c1bd
000001a0: a4f0 b43d 9e3e f23d 42d6 963e 227b 93be
000001b0: 795a 293e 9536 2c3e a74b 68bd 6ae7 233e
000001c0: 73f2 c33d 354b 46bc 68f7 39bd fbc7 833e
000001d0: 00cf e03d c542 99bd b841 ac3d 6db3 1d3e
000001e0: 1441 53bd c23e 0f3e 0838 b5bd 349d be3c
000001f0: 524f 0f3e eb70 6abe 4a77 043e c7ef 98bc
00000200: 7687 0bbd d358 99bd 35f5 7dbc 7878 e5bd
00000210: 5174 b53d 7e1c b13d d7da fe3c 1de6 a73d
00000220: 9ad0 18be 4021 313e 69d1 143e acb7 15be
00000230: 5cfe 4c3d ac3a 4a3d 7b12 203e 2945 92be
00000240: 7f30 d93c bc0d 28be fb08 fa3d 0d1a 8cbe
00000250: e69f 14be f08f 52bc 23ee 473d 5225 31bd
00000260: 675c 08be 3057 4e3d 13a3 82bd 9b67 203d
00000270: 885a 573d 8417 72be 4ef2 30be 3461 01be
00000280: 5f7e 06be 52e3 e1bd 28b0 14be 72a0 18be
00000290: 26b8 70bd ff6d 4dbe b4b7 41bd 9476 1bbe
000002a0: 5187 35bd 7b24 69bd 1e09 2fbc 21c8 89bd
000002b0: 24f2 513b 6b49 8b3c de89 98bd a651 a6bd
000002c0: 5f8d 263d f16c 04be 73d5 aabd 5c86 00be
000002d0: 1973 f9bd 4c06 9cbd bf7d 00be 740e ebbd
000002e0: db47 4ebd efc6 c9bd 388e 05bd 187d 653d
000002f0: 42b6 29bd 4dea bebd 8e11 84be d1a4 9bbb
00000300: 40a9 f4bc 2122 2abe e3c7 c3bd 3fd8 0fbd
00000310: b68e 21bd 07ae 17be 1cc9 5bbd dd40 2cbe
00000320: 701c db3d 0f31 0cbe 47f8 b5bb 07ac efbc
00000330: 9713 4cbe f6c0 103d dff7 903e 56d5 bbbc
00000340: 3c3c 2a3e 01ff 82bb 08f5 24be e0c1 ca3c
00000350: 1584 0a3d 57cc afbd 5336 0f3e 2be7 723e
00000360: 61e9 de3d b0fb 6fbe 3398 a6bb 2061 c3bd
00000370: 47fc 4bbd dd6f f4bd 4f3f e6bd 4c84 5fbd
00000380: e358 383d b2cb 85bd 9f63 523e fc02 c43d
00000390: 7a29 aa3d 4a45 9b3d f16c 94bd 5cb2 ce3c
000003a0: f84b 883a 834a e93a ff7e a7bd 713f 87bd
000003b0: 0660 20be fc2e d33d 299b 5e3d bef1 503e
000003c0: 0fce e43d 005a 013e 1237 393e c538 dbbe
000003d0: 87c9 443d edff 15bd cfe6 c53d 31f5 793c
000003e0: 9295 dabd 289d 42be fe74 ca3d 4c3c 38be
000003f0: a290 1e3d 4ca7 3c3d d631 f7bd c4ae fdbd
-0.24721353 0.03677697 -0.22855696 0.14667645 -0.00022851716 -0.09125307 -0.1814446 0.025832672
-0.013079244 -0.13612121 0.08901894 -0.17009877 -0.17932269 0.049909003 0.024653886 -0.26888093
-0.27888408 0.067725845 -0.2945284 -0.08342371 -0.2574492 0.037717786 0.18922995 0.07265539
0.0022315856 0.24794374 -0.15521276 -0.040760916 0.09226888 -0.044266682 0.13063587 0.04549911
-0.021474868 -0.052632388 -0.1086094 0.053735625 -0.046698052 -0.24389765 -0.2405508 0.13052088
-0.021033067 -0.14456724 -0.25280237 0.093850955 -0.01727092 0.14717847 -0.111867785 -0.01660655
0.103230976 0.012087258 0.22766398 -0.22814506 0.2136072 -0.20422275 0.035589594 0.0036448857
0.3607497 -0.2979291 0.2684351 0.34381744 0.051557884 0.14536053 0.24976683 -0.046627108
-0.051209915 0.35966334 0.26044622 0.011950059 0.08228982 0.072663 0.116690665 1.6347727e-05
0.09257386 -0.036308277 0.0363825 -0.09275708 0.21592547 0.048003003 -0.059957664 0.17926477
-0.024456885 0.0425755 -0.063183576 0.16520424 0.091492936 0.026554326 -0.04038292 0.1338054
0.08167442 0.028810441 0.05479816 0.2985472 0.14777106 -0.34891945 0.04385587 -0.16012639
0.28409034 -0.051965076 0.056584086 0.02646283 0.04905843 -0.07768396 0.0441686 -0.09448743
0.08834961 0.118283495 0.2946034 -0.2880488 0.16538419 0.16817696 -0.056712773 0.16006246
0.09567728 -0.012102892 -0.04540196 0.2573851 0.10976982 -0.074834384 0.08410972 0.15400477
-0.051575735 0.13988784 -0.08848578 0.02326832 0.13995102 -0.22894637 0.1293613 -0.018669022
-0.034064732 -0.07487645 -0.015500356 -0.11204618 0.08860076 0.086480126 0.03111021 0.081981875
-0.14923325 0.1729784 0.14533009 -0.14620847 0.050047264 0.04937236 0.1563205 -0.2856839
0.026512383 -0.16411489 0.12208744 -0.27363625 -0.14514121 -0.0128517 0.04881109 -0.043248482
-0.13316499 0.050376117 -0.0637876 0.039161306 0.05257657 -0.23641783 -0.17279932 -0.12634736
-0.13134144 -0.11029686 -0.14520323 -0.14904955 -0.058769368 -0.20061491 -0.047294334 -0.15181953
-0.0443185 -0.056919556 -0.010683326 -0.06727625 0.0032035196 0.017002782 -0.07448171 -0.08121042
0.040662166 -0.12932183 -0.083414935 -0.12551254 -0.12180156 -0.076183885 -0.12547968 -0.11477366
-0.050361495 -0.09852397 -0.032606333 0.0560275 -0.04143358 -0.09322033 -0.25794643 -0.0047498723
-0.029865861 -0.16614582 -0.0955961 -0.035118338 -0.03944274 -0.1481248 -0.05365859 -0.16821618
0.106987834 -0.1369059 -0.0055532786 -0.029256834 -0.19929348 0.035340272 0.2831411 -0.022928875
0.1662454 -0.003997684 -0.16109097 0.02475065 0.03381737 -0.085838966 0.13985567 0.23720996
0.10884357 -0.23435855 -0.0050840615 -0.095400095 -0.049801137 -0.11935399 -0.11242544 -0.054569528
0.045006644 -0.065329924 0.20545815 0.09570882 0.08308692 0.07581575 -0.072473414 0.025231533
0.0010398617 0.0017798695 -0.081785195 -0.06603897 -0.1566163 0.10311696 0.05434719 0.20404717
0.11172115 0.12631989 0.18087414 -0.4281675 0.048043754 -0.036621023 0.09663164 0.015256212
-0.106730595 -0.19005263 0.09885596 -0.17991751 0.03871215 0.046057984 -0.12070052 -0.123868495

model_1/LSTM2/while/lstm_cell/MatMul f4 [200, 50]
00000000: 17c2 9b3e 3943 ff3e a96e 143f 6267 d9bd
00000010: 412c 0a3e 2e3b 9dbe ec59 cabd 299f 3cbe
00000020: 53e7 d2bd a676 76be f7c5 b1be af1b 253e
00000030: bb6d 28be 62d3 38be 72d0 e8bd 39aa 7fbe
00000040: 4abb 27be 3749 423d dd02 173d de85 573d
00000050: ff2e d5be 25e3 93bd 8fb2 943e 1aaf 0fbe
00000060: ca37 903e 11e1 6a3d 0e1e ac3e fa39 b2be
00000070: 601f 633e a9df 0abf 13c4 64bc 130d a13e
00000080: ade8 9c3c c340 a2bd 84e9 d83e 7975 9cb9
00000090: 3074 ad3d 00ea 36be 4792 f7bb 583f 19bd
000000a0: 9d89 f5bd a6b2 84be a1c9 58be c587 963e
000000b0: 13d7 cf3e cdd5 1abe 9120 fd3e d1b3 cfbe
000000c0: a6f3 11be 03d5 f63c 2bb5 3c3e 7f9d c5bc
000000d0: 4a5e 833d 69c0 3bbd ab83 5cbf 0db8 62bd
000000e0: 0696 42be a2e6 97be 0a04 afbd 3061 85be
000000f0: 724f 9ebe dc26 99be 2bc1 13bf b0d2 66be
00000100: 578a c7be 7cb3 95bd f44a 09be f0a4 1bbe
00000110: 1ed3 3b3f 8e1e 65be e1c0 55bf 060b 1e3f
00000120: a42b d73d 45db 8cbe 1e7d 2e3f fae3 193e
00000130: 7625 8abe d481 79be 39c5 923f 496a b3be
00000140: 222c 78bf de36 c6bc cf83 753e 17fc 593f
00000150: 9b41 463e 5c52 49be d39f 4dbf 014d 643f
00000160: e42b 343f 5544 a8be 9117 0ebe 8041 a7be
00000170: 470d 253f 579e ed3d fdd5 0d3d f064 5ebe
00000180: 192f 8e3d 5a27 49be 7a0f f9bd e7c1 843f
00000190: e97a a73e 5c80 923e b979 a73e e859 0dbe
000001a0: 9ea3 1dbf 687e f5be 8342 033d 758a 9abe
000001b0: fa88 e83c e587 2bbf aa29 c4be 41ee 4e3e
000001c0: 1fa4 31bf 8395 c73d cd8a 29be 33c2 803e
000001d0: a10e 453e 7444 983d 1fb9 f83e ad87 473d
000001e0: e310 69bf fa4a 0e3f d6a7 c43d 62b7 7f3d
000001f0: 8923 b43e d30f c93e aa76 3f3e 9375 d5be
00000200: 8b2b 033f 6328 6cbe 30bd 1ebf 39aa 5c3e
00000210: 8ad2 d43e 86dd 113f 38ec a53d 7e3e 28be
00000220: cf64 30bf 0e82 233f a5a2 283f c34b 833e
00000230: 83f5 303e fcea bebe 7ee7 353f d22e 643e
00000240: 10db 183f 30a9 e93d 53d2 d73e 8bb1 edbe
00000250: 70b8 513c 7954 af3e cba3 513c 4c6f 0cbd
00000260: 39db 9cbc 6d12 223e d2f0 35bf 3f90 553d
00000270: a508 b4bd 1c19 58be c02a f43d 057f 86be
00000280: f211 93be fb43 e7bc 97d7 f5be 50fe 7a3e
00000290: 1e01 42be 634c 473e 2755 d33c feb3 653e
000002a0: 4efe 263f 881c dc3c df3c 06bf 561f 1c3f
000002b0: bfb1 9e3d b4d5 da3e b414 3d3f 5fc2 1fbd
000002c0: 7aec 073d 8d5c 2bbe e40e 3c3f b54c cdbd
000002d0: d181 c0be 9bd9 f9bd 8bad 58be 6bb9 2e3f
000002e0: 9656 f1bc 111b 2abd 3d6c 13bf a1ac 4f3f
000002f0: 8687 5a3f 96dc be3d 6393 873d 09ca 28be
00000300: a8a8 1a3f e4d0 a4bc 4a81 83bd fadf b33b
00000310: 2989 7a3d 0f3a 72be 3246 41be a5c1 833f
00000320: 40f8 f5bd 5060 a93d e92e 91be 1b31 14be
00000330: edde 29bf 759b 82bd c192 20be 02d2 47be
00000340: f113 84be 637e 8ebe b93c a7be 8f5d 50be
00000350: 46bc 59bf 7c82 07be 780f 45be 64a3 65be
00000360: 28cd 64be 4535 85bc 882c 693f 64ee 49bd
00000370: c08c 39bf f485 113f 096c 7e3e eb2f d3bd
00000380: 8949 383f 2ee8 4fbc 7983 62be 53ee 55be
00000390: 688e 5b3f 3a89 50be 8cc3 5dbf f60f 00bf
000003a0: 9735 043d 147d 493f 7062 81be 6a25 34be
000003b0: 19e0 9bbf 0dfe 7f3f f3f8 693f 5df7 a4bd
000003c0: cdce 01be 143c 38be 66f9 423f f9fe 0c3c
000003d0: 077f ae3d 5632 95bd 7256 ed3d d106 3ebe
000003e0: 82d0 1ebd d41b 843f 24d6 e73e f97c c03e
000003f0: 2162 a73e 7662 813c 9276 48bf db6f 0bbf
0.30421516 0.49855974 0.57981354 -0.10615422 0.13493444 -0.30709213 -0.098804325 -0.1842009
-0.10298028 -0.24068698 -0.34721348 0.16123842 -0.16448109 -0.18049386 -0.11367883 -0.24967279
-0.16380039 0.047433104 0.036867965 0.0526179 -0.41637418 -0.07221059 0.2904248 -0.1403164
0.28167564 0.057343546 0.3361668 -0.34809858 0.22179937 -0.5424753 -0.013962763 0.31455287
0.019153917 -0.079225086 0.42365658 -0.00029842163 0.08469427 -0.17862701 -0.0075552794 -0.037413925
-0.11989138 -0.25917548 -0.21170665 0.2940046 0.40593776 -0.15120621 0.4943891 -0.40566877
-0.14253101 0.030130869 0.18428485 -0.024122952 0.064144686 -0.045837793 -0.8613841 -0.055351306
-0.19002542 -0.29668146 -0.08545692 -0.2605071 -0.30919987 -0.2991246 -0.57716626 -0.22541308
-0.38972732 -0.073096246 -0.13407499 -0.15199637 0.73369014 -0.22374937 -0.83497435 0.6173557
0.10506371 -0.2751104 0.68159664 0.15028372 -0.26981705 -0.24365932 1.1466438 -0.35042027
-0.9694234 -0.024196085 0.23976062 0.85150284 0.19360964 -0.19660324 -0.80322 0.8918
0.7037947 -0.32864633 -0.13876177 -0.3266716 0.64473385 0.116024666 0.034627903 -0.21718192
0.06942577 -0.19643918 -0.12161155 1.0371674 0.3271096 0.28613555 0.32710055 -0.13803828
-0.61577785 -0.47948003 0.032045852 -0.3018376 0.028385628 -0.67004234 -0.38313037 0.20208074
-0.69391054 0.09745314 -0.16556855 0.25148162 0.19243862 0.074349314 0.48578736 0.048713375
-0.9104139 0.55583155 0.09602325 0.062430747 0.3518336 0.39269885 0.1869761 -0.41691265
0.51238316 -0.23062281 -0.6200743 0.2154931 0.4156688 0.5697864 0.08101696 -0.16430089
-0.6890382 0.6387032 0.65873176 0.2564374 0.17281155 -0.37288654 0.71056354 0.22283486
0.5970926 0.11409223 0.42152652 -0.46424517 0.012800321 0.34244135 0.012795399 -0.03428583
-0.019147502 0.15827341 -0.7107059 0.052139517 -0.08790711 -0.21103328 0.119222164 -0.26268783
-0.2872463 -0.028230658 -0.48016044 0.24511075 -0.18945739 0.19462733 0.02579744 0.22431943
0.6523179 0.026869074 -0.5243663 0.60985315 0.07748746 0.42741168 0.73859715 -0.039003726
0.033184506 -0.16734524 0.7346022 -0.10024396 -0.37599042 -0.12199708 -0.21159951 0.68251675
-0.029460233 -0.04152972 -0.57587034 0.81122786 0.8536304 0.09319417 0.06619909 -0.1648332
0.604136 -0.020119138 -0.06421144 0.0054893466 0.061165962 -0.2365496 -0.18874434 1.0293471
-0.120102406 0.08270323 -0.28356102 -0.14471857 -0.6635578 -0.06377307 -0.15680982 -0.19513705
-0.25796464 -0.278308 -0.32663515 -0.2034819 -0.8505291 -0.1323337 -0.19244182 -0.2242561
-0.22343886 -0.016260752 0.91083574 -0.049299613 -0.7248039 0.5684502 0.248459 -0.10311874
0.71987206 -0.012689633 -0.22120465 -0.20891695 0.8576417 -0.20364848 -0.86626506 -0.50024354
0.03227767 0.7870648 -0.25270414 -0.17592397 -1.2177764 0.99997026 0.9139549 -0.08054993
-0.12676544 -0.17991668 0.761618 0.008605712 0.08520322 -0.072849914 0.11588754 -0.18557288
-0.038773067 1.0320992 0.45280564 0.37595347 0.32692054 0.01579402 -0.78305924 -0.5446755

model_1/LSTML3/while/lstm_cell/BiasAdd/ReadVariableOp f4 [200]
00000000: b292 66be 59f4 083e bb8e 99be 867d 89be
00000010: e058 513d f141 043f f4b5 cfbc f290 703e
00000020: 2460 8fbd cbdf 023e 2834 23bd cc59 543e
00000030: 4844 86be 9899 693e df4a 043e d617 853d
00000040: cb61 233e 8d00 32be 6c20 533e 4e8d 6e3e
00000050: c020 34be e66e 22be 9201 5fbe fe6d ca3d
00000060: c943 ee3b 7786 343e 4f55 9a3c 676d e9bd
00000070: cc37 ed3d 0a19 7bbe d7a7 cdbe 801d 553e
00000080: 61d8 f63d a830 023e e2d7 1e3e 58af 8a3e
00000090: 2416 f3bd 2285 613e 50ee 093e 3e34 8c3d
000000a0: ee5d 4c3d b3d7 5a3e 7462 ea3d 8ca7 ecbd
000000b0: cf64 e63a ef86 343e 266e f2be 0074 b33d
000000c0: b570 21bd b1c4 663e 59bc 7d3f 3bc3 9d3f
000000d0: 0d05 453f dea7 993f b9da 9a3f 08e5 9d3f
000000e0: 4bbf 8a3f de52 a03f 405b 933f 7e8d a03f
000000f0: f503 9a3f b24a 9f3f f540 6e3f b3c7 a13f
00000100: 8c81 a73f b691 913f 00cf 9b3f 6bee 823f
00000110: 08d3 883f a878 913f b85f 863f 654b 5b3f
00000120: 6a9f 763f 4a49 a83f 5771 893f 4c02 983f
00000130: e581 923f f372 803f 63d6 9c3f 3e8b 573f
00000140: 9b4b 323f 3958 a33f d59f a13f 7c42 a83f
00000150: 74eb 9e3f 4353 a73f f5cc 733f e052 bc3f
00000160: 0c10 a43f bd82 a73f 4f21 b53f 6dd1 973f
00000170: d411 953f c3aa 673f 0f10 823f 17b0 b03f
00000180: 7ac6 6b3f 001f b23f b6df 983f 5495 903f
00000190: 5441 76be a24c fe3d 81e1 d33d fba0 f73d
000001a0: d12b 21be 152e 2d3e ed4a 0bbe 45ed 803d
000001b0: a8c8 b8bd f79f 81bd 40a0 193d 6cbc 353d
000001c0: 983d 6e3d df09 afbd 2a8a 32be 9dcd 8dbd
000001d0: 16c9 9b3c 7f41 f5bd 96cf 7b3c f0c5 853e
000001e0: 0e89 35be 9c2d 41bd ef6f 49bd 647c 45be
000001f0: 08d8 6c3e 69ba 173e 5255 f6bc 03ca 2bbd
00000200: 2af7 3bbe ca29 4fbe b4f1 cdbd 28d2 b93c
00000210: 1bde 18bd 9bd5 15bd 0779 4ebc 689f c5bd
00000220: 19ab 743e 5d6b b0bd e87f 88ba 0354 09be
00000230: 7085 973d 874b 5dbc 539d f4bd 1763 753e
00000240: 9e31 2b3e 2f1a 8b3d e66d f33d bf24 e1bd
00000250: b74c 4c3e d2ea 823e 08c4 2abe 0ac0 c83d
00000260: a471 a8bd 281a 99be 0cba 063e 32b7 dd3e
00000270: dc3a 443d 8b8c d43e 86b5 9abd 930a 723e
00000280: 6d9c 9ebd cbe4 303e fc58 a6bd b88b 323e
00000290: 8159 113e 9d26 123e 4c27 ec3d 3e06 8fbe
000002a0: c715 7e3e b395 7e3e 56b8 95bd 6299 253e
000002b0: bdb1 63be 62fe 2a3e f4b4 eb3c 2fbb 783e
000002c0: 8efe 293c e78e 1bbe 9230 403e f5b7 72be
000002d0: 3a56 efbe 24db 853e 2ff6 1c3d e1ca 2f3e
000002e0: 2979 6d3e ac6e 823d 51f5 f1be 8149 903e
000002f0: a5cc 963e 6327 223e 42df 5fbe 7de4 d13e
00000300: 2a05 bb3d f35f fabd b96c 3e3d afdf 903e
00000310: 29e2 b5be 8290 373e 72d9 87bd f8c8 fa3e
-0.22516897 0.13374461 -0.29991707 -0.2685358 0.05111015 0.5166312 -0.025355317 0.23492792
-0.07000759 0.12780683 -0.039844662 0.2073738 -0.2622397 0.22812498 0.12919186 0.06498687
0.15955274 -0.17383023 0.20617837 0.23296091 -0.17590618 -0.15862617 -0.21777943 0.098842606
0.007271264 0.1762942 0.018839506 -0.1139782 0.11582908 -0.2452127 -0.40167114 0.20812035
0.1205299 0.12713873 0.1551204 0.27086902 -0.11869457 0.22023442 0.13469815 0.06845902
0.049894266 0.21371345 0.1144456 -0.115553945 0.0017577651 0.17629598 -0.47349662 0.087623596
-0.039414126 0.2253597 0.9911552 1.2325205 0.7696083 1.2004354 1.2097999 1.233552
1.0839628 1.2525289 1.1512222 1.254318 1.2032458 1.244467 0.93067867 1.2639068
1.308641 1.1372592 1.2172546 1.0229009 1.0689402 1.1364946 1.0497961 0.8566192
0.96336997 1.3147366 1.0737714 1.1875701 1.1445891 1.003508 1.2252926 0.8419684
0.69646615 1.2761298 1.2626902 1.314529 1.2415605 1.3072284 0.95234615 1.4712791
1.2817397 1.3086773 1.415079 1.1860787 1.1646066 0.90494937 1.0161151 1.3803738
0.92099726 1.391571 1.1943271 1.1295571 -0.24048358 0.1241696 0.10345746 0.120912515
-0.15739371 0.1691211 -0.136028 0.062952556 -0.09022647 -0.06329339 0.037506342 0.044369146
0.05816421 -0.08546805 -0.17435518 -0.06923983 0.019016784 -0.11975383 0.015369317 0.26127577
-0.17728063 -0.047162637 -0.049179014 -0.19285733 0.23129284 0.14817204 -0.03006998 -0.0419407
-0.18356004 -0.20230785 -0.10055867 0.022683218 -0.03732119 -0.036580663 -0.012602097 -0.09649545
0.23893394 -0.08614228 -0.0010414096 -0.13410954 0.07398498 -0.013506777 -0.1194407 0.23963581
0.16718146 0.067921035 0.11886196 -0.10993337 0.1995114 0.2556978 -0.16676342 0.098022535
-0.082248 -0.29902768 0.13156909 0.4330383 0.047907695 0.41513476 -0.07554154 0.23636846
-0.077446796 0.17274778 -0.08122441 0.17436111 0.141943 0.14272542 0.11530933 -0.2793445
0.24812995 0.24861793 -0.0731055 0.16171792 -0.2223577 0.16698602 0.028772809 0.24290155
0.010375632 -0.15191232 0.18768528 -0.23702987 -0.46745473 0.26143754 0.038320716 0.17167236
0.2319075 0.06368765 -0.47257474 0.2818108 0.29453006 0.15835337 -0.2186251 0.40994635
0.09131844 -0.12225332 0.046490405 0.28295657 -0.3552411 0.17926219 -0.06633271 0.48981452

model_1/LSTML3/while/lstm_cell/MatMul_11 f4 [200, 50]
00000000: 7ddf 0abf 725e 203f a1d5 9abe 4e2f 063f
00000010: 7f96 e93e 720a cb3e 6bdd d83d aca9 833e
00000020: 3a2e f63d 17fe 883e e00e 853d e9b8 62be
00000030: 8049 99bd dbde 543e e67a e5bd ef1e 3bbb
00000040: 69ae c23a 2728 07bf e119 60be 2817 4d3d
00000050: 4226 953d 9613 c6be 2e1d 933e 9ab0 723d
00000060: 5303 febb 6d96 8f3d f2fb e8bd 3aab dbbe
00000070: d5de 833e 2625 0cbf d695 03bf af89 55be
00000080: 7f5c 603e 7ac4 cd3e 2f16 253e b1a6 a5be
00000090: 5ee7 913e 799e 1a3e 32d2 863d 3481 833e
000000a0: a8ca 183e 3acc b63d 4112 7e3e c9e1 043e
000000b0: 35ef 30bd a5c3 e8be 4522 443e abdd 183e
000000c0: 0468 babe 492d 663e 3a11 c6bd 92f2 2abe
000000d0: ea8d 7b3d 0529 d03e 5872 63be bc10 143e
000000e0: 808e b0be fca9 4a3e 377a 41be e530 98bd
000000f0: 205b e93c a9d2 ca3d 225c 8a3e 378a 10bc
00000100: 2165 3e3d 3c09 123d 3e5c ad3c b56b a0bd
00000110: 8eda 853d ec95 b03a c5f9 61bc f0fe f1bd
00000120: 40d5 cfbd 8a06 3dbe 79a3 7a3d 312b 443e
00000130: 02d8 123e 247e 9e3d 31d8 e03b c9e6 cdbd
00000140: 9fc4 f1bd 8080 093e cf18 043e 0c27 b2be
00000150: 0607 a1be ef3b 3e3d 1922 a93e fa62 36be
00000160: 1b2a 483e ac13 39be d927 263f f3cc 753e
00000170: d16f a1be a6c5 163e 80a6 8d3e c3f1 263d
00000180: 5f89 03bc 3bb8 5ebe 1bce aabd 7ce3 0d3e
00000190: 8e6a 923e 270f bb3d e68d 1bbe 623e e0bc
000001a0: bf98 043e 2cdd 8a3d f01c bf3e e439 98be
000001b0: 6f57 5e3e f0c4 223e a1b4 dcbc 6e06 c6be
000001c0: 5c4a bbbd 6492 a43d 0d74 91bc 7d59 bbbd
000001d0: 80cb d1be 50dc bebd 9172 9abe 6142 4ebe
000001e0: 9315 163e d805 ae3d 80b0 9a3e 45cf 853e
000001f0: 102b 4dbe 4498 81bd de06 eebd ceca efbd
00000200: 9666 f53d 8c00 c43e d827 443e acd4 c4be
00000210: f9cc 0839 7f65 8c3e fd04 133e 4b97 07be
00000220: f931 39be 6424 a93d 180c 5cbc 2f47 6f3e
00000230: f744 5ebd 01f9 5bbe 069e 1e3e 870e 24be
00000240: 6a27 b2be bf79 df3d e9e9 c0bd 090a 853e
00000250: 0af4 b5bd d7f9 e9bd 5942 8b3b 76ba bb3e
00000260: 807f 48be 1b48 4abe a04f ac3e 23b3 b33e
00000270: 277a d93e 29c6 99be 3944 793e d235 e83e
00000280: 3374 4e3e 8319 2fbf d8d3 f83e 2662 f8bc
00000290: cffd 673d 9705 903c a888 39bf ae4f 95bd
000002a0: fc7c dfbe c7ab bfbc 0561 553e 2273 4f3e
000002b0: 77a0 593f 82d5 073e 23db 603c e1c3 e9be
000002c0: f823 983e 5bee 37be 3b39 953e f9b1 813d
000002d0: 1347 9a3e 68ad 00bf 6aa3 423e 9830 9a3e
000002e0: ce20 b83d a947 29bf 22c2 a73e 26a3 883e
000002f0: ab8f 8bbd 0f6b 623e d602 243e 3753 eebe
00000300: 5d6c 033e cefc c03e 9705 c4be fa66 9cbc
00000310: 9801 0c3f 0003 723f 68b5 973d af82 64be
00000320: b41a 3abc 3cfe 3fbe d6ef f8bb d30a 77be
00000330: ddf9 99bc 8f07 30bb 1c61 80be 8ac7 963d
00000340: c75d 82be 51c4 abbe 505a b63d 94bc 5a3e
00000350: 7518 c5bc 57cb b4be b8b5 1f3e f887 b3bd
00000360: 4f84 f83d d737 b5bc 9c91 6b3d fb67 6cbc
00000370: 2660 5a3e d4e2 46bd bd19 033e 0378 0fbe
00000380: 018b 39be 3b78 b63d c421 d3bc 9f47 a73d
00000390: 0189 f1bd b207 013f 941b ad3e a4f4 943d
000003a0: b442 ba3d 4e2b e9bd 634c 94be 7958 2cbe
000003b0: e901 14be 5438 3bbe 5fbc 743d 9fd1 813c
000003c0: dd2c c43e 9e0a 94bd 131a 32be 2e1e 873e
000003d0: d1b2 783d 16ee 893d ab8b 8c3e 54ee 5abe
000003e0: bbaa 32bd a258 8dbe 667a f7be f16b c6bd
000003f0: 589d 97be eb84 a73e b1f1 c3be e67d 2a3f
-0.54247266 0.6264411 -0.3024111 0.5241593 0.45622632 0.39656407 0.10589107 0.25715387
0.12020536 0.26756355 0.06496978 -0.2214085 -0.07484722 0.20788138 -0.11205082 -0.0028552373
0.0014853004 -0.5279564 -0.21884872 0.05007091 0.07282688 -0.38686818 0.287332 0.05925045
-0.007751861 0.07011113 -0.1137618 -0.42904073 0.25755945 -0.54744184 -0.51400506 -0.20853303
0.21910284 0.40188962 0.16121744 -0.32353738 0.28496832 0.15099515 0.0658306 0.25684512
0.14921057 0.08925672 0.24811651 0.12976755 -0.043196876 -0.45461765 0.19153698 0.1492831
-0.36407483 0.22478212 -0.096712545 -0.16694096 0.061414637 0.40656295 -0.22211587 0.14459509
-0.3448372 0.19791406 -0.18894278 -0.07431201 0.028485835 0.099034615 0.27023417 -0.0088220155
0.046483163 0.035653338 0.021162149 -0.078330435 0.065358266 0.0013472415 -0.01379246 -0.118162036
-0.10148096 -0.18459526 0.061191056 0.19157101 0.14340213 0.07738903 0.0068617095 -0.100537844
-0.118050806 0.13427925 0.12900089 -0.34795415 -0.3145067 0.046443876 0.33033827 -0.17811194
0.19547312 -0.1807391 0.6490455 0.24003963 -0.31530622 0.14723834 0.27666092 0.040757906
-0.008028357 -0.21749966 -0.08340093 0.1385631 0.2859692 0.091337495 -0.15190849 -0.027373496
0.12948893 0.067804664 0.37326765 -0.29731667 0.21713041 0.15895438 -0.0269416 -0.3867678
-0.09145042 0.08035734 -0.017755533 -0.09147928 -0.4097557 -0.09319365 -0.30165532 -0.20142509
0.14656667 0.08497208 0.30212784 0.26134697 -0.20035958 -0.063278705 -0.116224036 -0.11708604
0.11982457 0.38281667 0.19155824 -0.38443506 0.00013046329 0.27421185 0.14357372 -0.13241307
-0.1808547 0.08258894 -0.013430618 0.23366998 -0.05426499 -0.21481706 0.15489969 -0.16021167
-0.34795696 0.10911893 -0.09419615 0.2598422 -0.088844374 -0.11424606 0.0042498526 0.36665696
-0.19579887 -0.19754069 0.336545 0.35097608 0.42476007 -0.30033997 0.24342431 0.45353562
0.20161514 -0.683983 0.48599124 -0.030320238 0.056638535 0.01758079 -0.72474146 -0.07290588
-0.43650043 -0.02339734 0.20837791 0.20258763 0.85010475 0.1326504 0.013724121 -0.45657256
0.29714942 -0.17962019 0.29145226 0.06332774 0.3013235 -0.50264597 0.1900765 0.301152
0.08990632 -0.6612497 0.327653 0.26686972 -0.06814512 0.22111152 0.16016707 -0.46547863
0.12834306 0.37692875 -0.38285515 -0.019092072 0.5468993 0.9453583 0.07407647 -0.22315477
-0.011358906 -0.18749326 -0.00759695 -0.24125223 -0.018795902 -0.0026859974 -0.2507409 0.07362278
-0.2546217 -0.33548215 0.089039445 0.21361 -0.024059514 -0.35311386 0.15596664 -0.08766168
0.12134611 -0.022121353 0.05751191 -0.014429088 0.2132574 -0.048556164 0.12802787 -0.14010625
-0.18119432 0.08909651 -0.025772937 0.081679575 -0.117937095 0.5040237 0.33810103 0.07273224
0.09094754 -0.11385213 -0.28964528 -0.16830625 -0.14453854 -0.18283206 0.059749957 0.015847025
0.38315478 -0.072285876 -0.17392759 0.26390213 0.060717408 0.067348644 0.27450308 -0.21379977
-0.043619853 -0.27606684 -0.4833557 -0.09688557 -0.2961223 0.32718596 -0.38270333 0.66598356
